…
68cb0076b03f5170600f2022-07-25 10:17:57 | INFO | fairseq.file_utils | removing temp file /tmp/tmpxj__5h9y2022-07-25 10:17:58 | INFO | fairseq.data.data_utils | loaded 727 examples from: data/rotowire//bins/valid.text-data.text2022-07-25 10:17:58 | INFO | fairseq.data.data_utils | loaded 727 examples from: data/rotowire//bins/valid.text-data.data2022-07-25 10:17:58 | INFO | src.tasks.text_to_table_task | data/rotowire//bins valid text-data 727 examples2022-07-25 10:18:02 | INFO | fairseq_cli.train | BARTOurs(  (encoder): TransformerEncoder(    (dropout_module): FairseqDropout()    (embed_tokens): Embedding(51200, 768, padding_idx=1)    (embed_positions): LearnedPositionalEmbedding(1026, 768, padding_idx=1)    (layernorm_embedding): LayerNorm((768,), eps=1e-05, elementwise_affine=True)    (layers): ModuleList(      (0): TransformerEncoderLayer(        (self_attn): MultiheadAttention(          (dropout_module): FairseqDropout()          (k_proj): Linear(in_features=768, out_features=768, bias=True)          (v_proj): Linear(in_features=768, out_features=768, bias=True)          (q_proj): Linear(in_features=768, out_features=768, bias=True)          (out_proj): Linear(in_features=768, out_features=768, bias=True)        )        (self_attn_layer_norm): LayerNorm((768,), eps=1e-05, elementwise_affine=True)        (dropout_module): FairseqDropout()        (activation_dropout_module): FairseqDropout()        (fc1): Linear(in_features=768, out_features=3072, bias=True)        (fc2): Linear(in_features=3072, out_features=768, bias=True)        (final_layer_norm): LayerNorm((768,), eps=1e-05, elementwise_affine=True)      )      (1): TransformerEncoderLayer(        (self_attn): MultiheadAttention(          (dropout_module): FairseqDropout()          (k_proj): Linear(in_features=768, out_features=768, bias=True)          (v_proj): Linear(in_features=768, out_features=768, bias=True)          (q_proj): Linear(in_features=768, out_features=768, bias=True)          (out_proj): Linear(in_features=768, out_features=768, bias=True)        )        (self_attn_layer_norm): LayerNorm((768,), eps=1e-05, elementwise_affine=True)        (dropout_module): FairseqDropout()        (activation_dropout_module): FairseqDropout()        (fc1): Linear(in_features=768, out_features=3072, bias=True)        (fc2): Linear(in_features=3072, out_features=768, bias=True)        (final_layer_norm): LayerNorm((768,), eps=1e-05, elementwise_affine=True)      )      (2): TransformerEncoderLayer(        (self_attn): MultiheadAttention(          (dropout_module): FairseqDropout()          (k_proj): Linear(in_features=768, out_features=768, bias=True)          (v_proj): Linear(in_features=768, out_features=768, bias=True)          (q_proj): Linear(in_features=768, out_features=768, bias=True)          (out_proj): Linear(in_features=768, out_features=768, bias=True)        )        (self_attn_layer_norm): LayerNorm((768,), eps=1e-05, elementwise_affine=True)        (dropout_module): FairseqDropout()        (activation_dropout_module): FairseqDropout()        (fc1): Linear(in_features=768, out_features=3072, bias=True)        (fc2): Linear(in_features=3072, out_features=768, bias=True)        (final_layer_norm): LayerNorm((768,), eps=1e-05, elementwise_affine=True)      )      (3): TransformerEncoderLayer(        (self_attn): MultiheadAttention(          (dropout_module): FairseqDropout()          (k_proj): Linear(in_features=768, out_features=768, bias=True)          (v_proj): Linear(in_features=768, out_features=768, bias=True)          (q_proj): Linear(in_features=768, out_features=768, bias=True)          (out_proj): Linear(in_features=768, out_features=768, bias=True)        )        (self_attn_layer_norm): LayerNorm((768,), eps=1e-05, elementwise_affine=True)        (dropout_module): FairseqDropout()        (activation_dropout_module): FairseqDropout()        (fc1): Linear(in_features=768, out_features=3072, bias=True)        (fc2): Linear(in_features=3072, out_features=768, bias=True)        (final_layer_norm): LayerNorm((768,), eps=1e-05, elementwise_affine=True)      )      (4): TransformerEncoderLayer(        (self_attn): MultiheadAttention(          (dropout_module): FairseqDropout()          (k_proj): Linear(in_features=768, out_features=768, bias=True)          (v_proj): Linear(in_features=768, out_features=768, bias=True)          (q_proj): Linear(in_features=768, out_features=768, bias=True)          (out_proj): Linear(in_features=768, out_features=768, bias=True)        )        (self_attn_layer_norm): LayerNorm((768,), eps=1e-05, elementwise_affine=True)        (dropout_module): FairseqDropout()        (activation_dropout_module): FairseqDropout()        (fc1): Linear(in_features=768, out_features=3072, bias=True)        (fc2): Linear(in_features=3072, out_features=768, bias=True)        (final_layer_norm): LayerNorm((768,), eps=1e-05, elementwise_affine=True)      )      (5): TransformerEncoderLayer(        (self_attn): MultiheadAttention(          (dropout_module): FairseqDropout()          (k_proj): Linear(in_features=768, out_features=768, bias=True)          (v_proj): Linear(in_features=768, out_features=768, bias=True)          (q_proj): Linear(in_features=768, out_features=768, bias=True)          (out_proj): Linear(in_features=768, out_features=768, bias=True)        )        (self_attn_layer_norm): LayerNorm((768,), eps=1e-05, elementwise_affine=True)        (dropout_module): FairseqDropout()        (activation_dropout_module): FairseqDropout()        (fc1): Linear(in_features=768, out_features=3072, bias=True)        (fc2): Linear(in_features=3072, out_features=768, bias=True)        (final_layer_norm): LayerNorm((768,), eps=1e-05, elementwise_affine=True)      )    )  )  (decoder): TransformerOursDecoder(    (dropout_module): FairseqDropout()    (embed_tokens): Embedding(51200, 768, padding_idx=1)    (embed_positions): LearnedPositionalEmbedding(1026, 768, padding_idx=1)    (layernorm_embedding): LayerNorm((768,), eps=1e-05, elementwise_affine=True)    (layers): ModuleList(      (0): TransformerRelativeEmbeddingsDecoderLayer(        (dropout_module): FairseqDropout()        (self_attn): RelativeEmbeddingsMultiheadAttention(          (dropout_module): FairseqDropout()          (k_proj): Linear(in_features=768, out_features=768, bias=True)          (v_proj): Linear(in_features=768, out_features=768, bias=True)          (q_proj): Linear(in_features=768, out_features=768, bias=True)          (relation_k_emb): Embedding(3, 64, padding_idx=0)          (relation_v_emb): Embedding(3, 64, padding_idx=0)          (out_proj): Linear(in_features=768, out_features=768, bias=True)        )        (activation_dropout_module): FairseqDropout()        (self_attn_layer_norm): LayerNorm((768,), eps=1e-05, elementwise_affine=True)        (encoder_attn): MultiheadAttention(          (dropout_module): FairseqDropout()          (k_proj): Linear(in_features=768, out_features=768, bias=True)          (v_proj): Linear(in_features=768, out_features=768, bias=True)          (q_proj): Linear(in_features=768, out_features=768, bias=True)          (out_proj): Linear(in_features=768, out_features=768, bias=True)        )        (encoder_attn_layer_norm): LayerNorm((768,), eps=1e-05, elementwise_affine=True)        (fc1): Linear(in_features=768, out_features=3072, bias=True)        (fc2): Linear(in_features=3072, out_features=768, bias=True)        (final_layer_norm): LayerNorm((768,), eps=1e-05, elementwise_affine=True)      )      (1): TransformerRelativeEmbeddingsDecoderLayer(        (dropout_module): FairseqDropout()        (self_attn): RelativeEmbeddingsMultiheadAttention(          (dropout_module): FairseqDropout()          (k_proj): Linear(in_features=768, out_features=768, bias=True)          (v_proj): Linear(in_features=768, out_features=768, bias=True)          (q_proj): Linear(in_features=768, out_features=768, bias=True)          (relation_k_emb): Embedding(3, 64, padding_idx=0)          (relation_v_emb): Embedding(3, 64, padding_idx=0)          (out_proj): Linear(in_features=768, out_features=768, bias=True)        )        (activation_dropout_module): FairseqDropout()        (self_attn_layer_norm): LayerNorm((768,), eps=1e-05, elementwise_affine=True)        (encoder_attn): MultiheadAttention(          (dropout_module): FairseqDropout()          (k_proj): Linear(in_features=768, out_features=768, bias=True)          (v_proj): Linear(in_features=768, out_features=768, bias=True)          (q_proj): Linear(in_features=768, out_features=768, bias=True)          (out_proj): Linear(in_features=768, out_features=768, bias=True)        )        (encoder_attn_layer_norm): LayerNorm((768,), eps=1e-05, elementwise_affine=True)        (fc1): Linear(in_features=768, out_features=3072, bias=True)        (fc2): Linear(in_features=3072, out_features=768, bias=True)        (final_layer_norm): LayerNorm((768,), eps=1e-05, elementwise_affine=True)      )      (2): TransformerRelativeEmbeddingsDecoderLayer(        (dropout_module): FairseqDropout()        (self_attn): RelativeEmbeddingsMultiheadAttention(          (dropout_module): FairseqDropout()          (k_proj): Linear(in_features=768, out_features=768, bias=True)          (v_proj): Linear(in_features=768, out_features=768, bias=True)          (q_proj): Linear(in_features=768, out_features=768, bias=True)          (relation_k_emb): Embedding(3, 64, padding_idx=0)          (relation_v_emb): Embedding(3, 64, padding_idx=0)          (out_proj): Linear(in_features=768, out_features=768, bias=True)        )        (activation_dropout_module): FairseqDropout()        (self_attn_layer_norm): LayerNorm((768,), eps=1e-05, elementwise_affine=True)        (encoder_attn): MultiheadAttention(          (dropout_module): FairseqDropout()          (k_proj): Linear(in_features=768, out_features=768, bias=True)          (v_proj): Linear(in_features=768, out_features=768, bias=True)          (q_proj): Linear(in_features=768, out_features=768, bias=True)          (out_proj): Linear(in_features=768, out_features=768, bias=True)        )        (encoder_attn_layer_norm): LayerNorm((768,), eps=1e-05, elementwise_affine=True)        (fc1): Linear(in_features=768, out_features=3072, bias=True)        (fc2): Linear(in_features=3072, out_features=768, bias=True)        (final_layer_norm): LayerNorm((768,), eps=1e-05, elementwise_affine=True)      )      (3): TransformerRelativeEmbeddingsDecoderLayer(        (dropout_module): FairseqDropout()        (self_attn): RelativeEmbeddingsMultiheadAttention(          (dropout_module): FairseqDropout()          (k_proj): Linear(in_features=768, out_features=768, bias=True)          (v_proj): Linear(in_features=768, out_features=768, bias=True)          (q_proj): Linear(in_features=768, out_features=768, bias=True)          (relation_k_emb): Embedding(3, 64, padding_idx=0)          (relation_v_emb): Embedding(3, 64, padding_idx=0)          (out_proj): Linear(in_features=768, out_features=768, bias=True)        )        (activation_dropout_module): FairseqDropout()        (self_attn_layer_norm): LayerNorm((768,), eps=1e-05, elementwise_affine=True)        (encoder_attn): MultiheadAttention(          (dropout_module): FairseqDropout()          (k_proj): Linear(in_features=768, out_features=768, bias=True)          (v_proj): Linear(in_features=768, out_features=768, bias=True)          (q_proj): Linear(in_features=768, out_features=768, bias=True)          (out_proj): Linear(in_features=768, out_features=768, bias=True)        )        (encoder_attn_layer_norm): LayerNorm((768,), eps=1e-05, elementwise_affine=True)        (fc1): Linear(in_features=768, out_features=3072, bias=True)        (fc2): Linear(in_features=3072, out_features=768, bias=True)        (final_layer_norm): LayerNorm((768,), eps=1e-05, elementwise_affine=True)      )      (4): TransformerRelativeEmbeddingsDecoderLayer(        (dropout_module): FairseqDropout()        (self_attn): RelativeEmbeddingsMultiheadAttention(          (dropout_module): FairseqDropout()          (k_proj): Linear(in_features=768, out_features=768, bias=True)          (v_proj): Linear(in_features=768, out_features=768, bias=True)          (q_proj): Linear(in_features=768, out_features=768, bias=True)          (relation_k_emb): Embedding(3, 64, padding_idx=0)          (relation_v_emb): Embedding(3, 64, padding_idx=0)          (out_proj): Linear(in_features=768, out_features=768, bias=True)        )        (activation_dropout_module): FairseqDropout()        (self_attn_layer_norm): LayerNorm((768,), eps=1e-05, elementwise_affine=True)        (encoder_attn): MultiheadAttention(          (dropout_module): FairseqDropout()          (k_proj): Linear(in_features=768, out_features=768, bias=True)          (v_proj): Linear(in_features=768, out_features=768, bias=True)          (q_proj): Linear(in_features=768, out_features=768, bias=True)          (out_proj): Linear(in_features=768, out_features=768, bias=True)        )        (encoder_attn_layer_norm): LayerNorm((768,), eps=1e-05, elementwise_affine=True)        (fc1): Linear(in_features=768, out_features=3072, bias=True)        (fc2): Linear(in_features=3072, out_features=768, bias=True)        (final_layer_norm): LayerNorm((768,), eps=1e-05, elementwise_affine=True)      )      (5): TransformerRelativeEmbeddingsDecoderLayer(        (dropout_module): FairseqDropout()        (self_attn): RelativeEmbeddingsMultiheadAttention(          (dropout_module): FairseqDropout()          (k_proj): Linear(in_features=768, out_features=768, bias=True)          (v_proj): Linear(in_features=768, out_features=768, bias=True)          (q_proj): Linear(in_features=768, out_features=768, bias=True)          (relation_k_emb): Embedding(3, 64, padding_idx=0)          (relation_v_emb): Embedding(3, 64, padding_idx=0)          (out_proj): Linear(in_features=768, out_features=768, bias=True)        )        (activation_dropout_module): FairseqDropout()        (self_attn_layer_norm): LayerNorm((768,), eps=1e-05, elementwise_affine=True)        (encoder_attn): MultiheadAttention(          (dropout_module): FairseqDropout()          (k_proj): Linear(in_features=768, out_features=768, bias=True)          (v_proj): Linear(in_features=768, out_features=768, bias=True)          (q_proj): Linear(in_features=768, out_features=768, bias=True)          (out_proj): Linear(in_features=768, out_features=768, bias=True)        )        (encoder_attn_layer_norm): LayerNorm((768,), eps=1e-05, elementwise_affine=True)        (fc1): Linear(in_features=768, out_features=3072, bias=True)        (fc2): Linear(in_features=3072, out_features=768, bias=True)        (final_layer_norm): LayerNorm((768,), eps=1e-05, elementwise_affine=True)      )    )    (output_projection): Linear(in_features=768, out_features=51200, bias=False)  )  (classification_heads): ModuleDict())2022-07-25 10:18:02 | INFO | fairseq_cli.train | task: text_to_table_task (TextToDataTranslationTask)2022-07-25 10:18:02 | INFO | fairseq_cli.train | model: bart_ours_base (BARTOurs)2022-07-25 10:18:02 | INFO | fairseq_cli.train | criterion: label_smoothed_cross_entropy (LabelSmoothedCrossEntropyCriterion)202
…
